final/best_multitask_model.pt (torch, 272702 bytes, 15 tensors)

shared_layers.0.weight f4 [256, 31]
0.25576037 0.12727669 -0.047071632 0.40853682 -0.071265824 0.006527631 -0.1410221 0.071931
0.095612414 -0.0437569 0.055293858 0.004145738 0.07223924 0.039836064 0.034821074 -0.0075167296
0.07807652 0.030186137 -0.023496773 0.034500208 -0.042251404 0.0022372988 0.020218162 0.06552237
-0.11966235 -0.004503886 0.023186957 -0.049118374 0.0113402065 -0.08567018 0.13250853 -0.22392209
0.075629346 0.024166752 -0.32491508 0.07474457 0.044067252 0.20295846 -0.019452134 -0.016362473
0.093778156 -0.114393964 0.08607942 0.14138097 0.118068665 -0.088555805 0.09839487 0.06323803
0.093260355 -0.14401081 -0.18494485 -0.03490264 -0.14491189 0.11708859 0.090301365 0.10312805
0.09386785 0.025160775 0.031026412 -0.13476194 -0.0005356809 -0.12973502 0.04836963 -0.07087131
0.13953829 -0.13134456 0.09512166 -0.12917115 -0.385103 -0.032870255 0.12086226 0.118470624
0.15377262 -0.18086651 -0.20772137 -0.14302658 -0.028644206 0.07262166 0.050513595 0.15374257
-0.046928044 -0.07394009 0.11798925 -0.09487724 0.048345022 -0.022352858 0.04857532 -0.17159142
-0.11069638 0.07639751 0.055381488 -0.07505979 0.06992035 0.18342975 -0.23298 -0.13336165
0.32697234 -0.10312705 -0.10634479 -0.3091822 -0.11971404 -0.00024245946 -0.091308124 -0.07281296
-0.052417547 -0.032509137 -0.07492144 -0.055525698 -0.092313945 -0.06896269 0.078368194 -0.020313626
0.0011371239 -0.1699364 -0.1307151 0.009985728 -0.016953625 -0.102346316 -0.049332347 -0.0636338
-0.043939255 -0.017444126 0.02102163 -0.1123098 -0.24770215 -0.11295884 -0.09423682 -0.28442848
0.20455994 -0.09009782 0.2569585 0.018901065 -0.06441903 0.1617195 -0.080760196 -0.08527723
-0.14376439 -0.17322609 0.04259134 -0.042082783 0.08344963 -0.1420653 0.17578895 -0.11537928
0.026314382 0.002828793 0.03837646 0.12073269 0.16143668 -0.13708639 0.026101517 -0.0053374846
-0.037552997 -0.12912771 0.10782443 -0.37131032 0.019843703 0.019994171 0.14144951 -0.019429963
0.04957093 -0.08294638 -0.03762301 -0.15900396 0.10638022 0.09473253 -0.11838797 0.11901857
0.01713933 -0.1361005 -0.119265765 0.021984812 0.10434395 0.07262863 -0.15720777 -0.019624807
-0.17509475 0.03366152 0.10739269 -0.21000414 0.05254292 0.06039069 0.01860764 -0.015622615
0.047160048 0.12492677 0.15623978 -0.04842807 0.005368114 0.03198937 -0.087433666 -0.00914085
0.4558067 0.09421687 -0.015071335 -0.00434355 -0.007825337 -0.003275828 0.025214225 0.03861313
-0.10200668 0.009844452 0.07689563 0.022344436 -0.017578265 -0.047938846 -0.10882115 -0.11828458
-0.0745986 0.01958045 0.0913126 0.074749805 -0.12563837 -0.16160272 0.024826085 0.039525256
0.011028625 -0.1576723 0.060062684 -0.07452126 -0.19541767 0.12375422 -0.05510486 -0.12167575
-0.14152285 0.15700148 0.11454299 0.076458275 -0.11083765 -0.16954446 -0.13724984 0.1381257
0.0749967 0.11341446 0.13462214 0.04929037 0.031231176 -0.07008895 -0.14616568 -0.16027822
0.080841236 -0.0877654 0.012240514 -0.09216712 -0.024024881 -0.1186972 -0.10964117 0.0834695
-0.09867283 0.12631947 -0.038259845 -0.25163457 -0.05298013 -0.06809278 -0.15534323 -0.17631765
00000000: 06f3 823e d254 023e 2fce 40bd bd2b d13e
00000010: d1f3 91bd bde5 d53b 1968 10be 8f50 933d
00000020: 71d0 c33d 6f3a 33bd d07b 623d f9d8 873b
00000030: 2bf2 933d 242b 233d 8ba0 0e3d e64e f6bb
00000040: 95e6 9f3d eb48 f73c 4e7c c0bc 1750 0d3d
00000050: cf0f 2dbd a59f 123b 8fa0 a53c 9830 863d
00000060: 8911 f5bd 5695 93bb 93f2 bd3c 5930 49bd
00000070: 46cc 393c d973 afbd 51b0 073e d54b 65be
00000080: 8fe3 9a3d 5af9 c53c 455b a6be ae13 993d
00000090: dd7f 343d 58d4 4f3e 155a 9fbc 980a 86bc
000000a0: c30e c03d 6247 eabd 684a b03d 2cc6 103e
000000b0: fccd f13d bf5c b5bd 4083 c93d f182 813d
000000c0: 49ff be3d 9277 13be 2f62 3dbe 12f6 0ebd
000000d0: c863 14be 25cc ef3d ecef b83d cd34 d33d
000000e0: ca3d c03d f81d ce3c 1a2b fe3c 09ff 09be
000000f0: f06c 0cba 42d9 04be 3c1f 463d fa24 91bd
00000100: 20e3 0e3e 307f 06be 25cf c23d 7145 04be
00000110: 382c c5be f6a2 06bd a286 f73d baa0 f23d
00000120: 9276 1d3e 1235 39be e9b4 54be 8f75 12be
00000130: 41a7 eabc aaba 943d 58e7 4e3d b16e 1d3e
00000140: 9f37 40bd e76d 97bd 59a4 f13d 004f c2bd
00000150: 6e05 463d 571d b7bc eaf6 463d a9b5 2fbe
00000160: c9b4 e2bd 4c76 9c3d b3d7 623d f2b8 99bd
00000170: 6732 8f3d 02d5 3b3e 4f92 6ebe f58f 08be
00000180: eb68 a73e 4634 d3bd 4ccb d9bd 214d 9ebe
00000190: a22c f5bd b73c 7eb9 c1ff babd f61e 95bd
000001a0: c8b3 56bd 4d28 05bd 6970 99bd ea6e 63bd
000001b0: 180f bdbd 503c 8dbd 817f a03d c368 a6bc
000001c0: 8c0b 953a cf03 2ebe 2eda 05be 2e9b 233c
000001d0: 54e2 8abc f29a d1bd b710 4abd 7052 82bd
000001e0: a6f9 33bd fce6 8ebc 8e35 ac3c ae02 e6bd
000001f0: a2a5 7dbe f756 e7bd 3cff c0bd 9ca0 91be
00000200: 2978 513e 3585 b8bd 1190 833e 68d6 9a3c
00000210: 20ee 83bd cc99 253e 9a65 a5bd d4a5 aebd
00000220: f936 13be 2e62 31be 4274 2e3d ff5e 2cbd
00000230: a4e7 aa3d 9179 11be 0502 343e f94b ecbd
00000240: 4291 d73c 4563 393b a330 1d3d b342 f73d
00000250: a84f 253e 6060 0cbe d9d2 d53c 11e6 aebb
00000260: 2cd1 19bd 0e3a 04be 0ed3 dc3d 631c bebe
00000270: 438f a23c d1ca a33c 24d8 103e 962b 9fbc
00000280: e30a 4b3d cbdf a9bd 961a 1abd efd1 22be
00000290: dfdd d93d 2103 c23d 6475 f2bd 02c0 f33d
000002a0: c867 8c3c ee5d 0bbe 9c41 f4bd 7e19 b43c
000002b0: 48b2 d53d 52be 943d 13fb 20be 34c4 a0bc
000002c0: 0a4c 33be a9e0 093d b3f0 db3d 530b 57be
000002d0: 3f37 573d 3a5c 773d 0d6f 983c fff5 7fbc
000002e0: e52a 413d 9bd9 ff3d 52fd 1f3e 835c 46bd
000002f0: 01e7 af3b 4907 033d 6c10 b3bd 81c3 15bc
00000300: 7f5f e93e c6f4 c03d c3ed 76bc 5754 8ebb
00000310: d835 00bc 46af 56bb 108e ce3c cd28 1e3d
00000320: e1e8 d0bd a04a 213c 757b 9d3d ae0b b73c
00000330: 4b00 90bc 865b 44bd a0dd debd 303f f2bd
00000340: 27c7 98bd 2e67 a03c 1a02 bb3d 6d16 993d
00000350: 58a7 00be 2f7b 25be 1360 cb3c 3ce5 213d
00000360: 68b1 343c d974 21be 4a04 763d 9a9e 98bd
00000370: 921b 48be da72 fd3d a2b5 61bd 2331 f9bd
00000380: 5eeb 10be ffc4 203e 8495 ea3d 2896 9c3d
00000390: dafe e2bd 109d 2dbe 398b 0cbe d370 0d3e
000003a0: df97 993d d745 e83d 63da 093e b3e4 493d
000003b0: 86d8 ff3c cc8a 8fbd 75ac 15be f91f 24be
000003c0: 1790 a53d 59be b3bd 708c 483c 1dc2 bcbd
000003d0: d4cf c4bc 8517 f3bd 8d8b e0bd 0ff2 aa3d
000003e0: fb14 cabd e459 013e 5bb6 1cbd 3fd6 80be
000003f0: b101 59bd 3a74 8bbd 4c12 1fbe 9d8c 34be

shared_layers.0.bias f4 [256]
-0.03979025 -0.09598587 0.13993213 0.14434662 -0.07974273 0.07753002 -0.09899044 0.11540174
-0.0067734662 -0.10736463 -0.023165237 0.13999057 -0.017291073 -0.03237329 0.02968882 0.031364717
0.09258618 -0.13237625 0.04706098 0.090858415 0.20778248 0.14819844 -0.096053354 -0.11805467
-0.1381219 0.12130584 -0.06161313 0.13131638 -0.041692454 -0.058457665 0.15357585 -0.012330586
-0.050335422 0.025645902 -0.10172534 -0.1383912 -0.08925885 0.034767035 -0.16556953 0.09240515
0.014559595 -0.029255617 0.037209988 0.049324483 -0.024419779 0.102052204 -0.21581395 0.21345593
0.09200088 0.07329411 -0.19393307 0.11103811 -0.061632287 -0.046634693 -0.10035737 -0.15902524
0.058607124 -0.2103482 -0.20042492 0.03547162 0.019824851 -0.009731678 -0.11181021 -0.008032313
-0.008573589 0.016535146 -0.20412925 0.18203156 0.08214666 -0.16375557 -0.13226423 -0.13579832
-0.0395367 0.11322616 0.05317974 0.10523046 -0.07802771 -0.04341275 0.009943429 -0.09891309
-0.101983 0.05093317 0.07340201 0.027928311 0.03857483 0.052191246 -0.031260766 -0.02552507
-0.02136014 0.052871384 0.045497816 -0.16399397 -0.02532073 0.18176642 -0.0298129 -0.103608474
0.11011769 0.0016647708 -0.004648481 0.17874478 -0.054313608 -0.10492647 0.116461 -0.105977826
-0.13741052 0.075194836 -0.025352158 -0.20900567 -0.06320513 0.04972474 0.025585167 -0.042057477
-0.030826997 0.016314704 -0.16878001 -0.105540425 0.10769579 0.12319362 -0.12363255 -0.15674664
0.1120756 0.191041 -0.040810995 0.22671862 -0.012557767 0.19756667 -0.078836545 0.04137643
0.14443511 0.079481155 -0.046363488 0.025166925 0.12780924 -0.09776205 -0.23251165 -0.20622863
-0.16849273 -0.12653913 -0.10709099 -0.10798719 0.17245366 0.18755406 0.038243823 0.0720797
0.07869312 -0.024189943 -0.15163746 -0.09929525 0.07819422 -0.050603982 -0.051170543 -0.13541435
-0.07488165 -0.025161028 -0.09229688 -0.019810852 0.012866128 -0.010049422 -0.010378655 -0.12698144
0.033794258 -0.18277611 0.049268804 -0.1602674 -0.1619026 0.15760091 -0.12621386 0.019663436
0.085947715 -0.10351142 -0.008197441 -0.020794298 -0.008075461 0.007494489 -0.15046528 -0.14966768
0.040981367 0.16473748 -0.109671965 0.108244605 0.073882006 -0.18596973 0.12974897 0.12840864
-0.052450832 0.15857218 0.17312011 0.16468498 0.18548036 0.063518204 0.04292473 -0.038182855
0.0006108765 0.17235634 0.030903291 0.010672271 -0.038775645 0.003153588 0.13635613 0.14285652
0.008165878 0.08852552 0.15019615 0.085436985 -0.11773986 0.16467023 -0.16198802 0.12643532
-0.1740634 0.14430211 0.037377104 -0.2239911 0.10601302 -0.010612747 -0.15447831 -0.12406723
0.1751878 0.12263903 -0.01564569 0.057660114 0.12449948 0.020230997 0.16536441 0.059422802
-0.06351342 -0.05409388 0.019859407 0.13070379 -0.18946971 -0.0035868702 -0.13448139 0.10438843
0.19224486 -0.033504743 -0.027033152 -0.043641143 -0.002640063 -0.033521406 -0.14718963 -0.090874575
0.010650113 0.02961594 -0.05951982 -0.14842418 0.22499225 -0.08390104 -0.0069515416 0.11068422
-0.103934206 -0.11190817 0.1652162 -0.08301332 0.23546238 -0.053845804 -0.051062547 -0.044679593
00000000: 1afb 22bd 3d94 c4bd 5e4a 0f3e 9acf 133e
00000010: 2850 a3bd 0fc8 9e3d 80bb cabd bf57 ec3d
00000020: f4f3 ddbb fde1 dbbd 06c5 bdbc b059 0f3e
00000030: 02a6 8dbc db99 04bd f835 f33c 4a78 003d
00000040: d39d bd3d a48d 07be 04c3 403d fa13 ba3d
00000050: eec4 543e 55c1 173e 9fb7 c4bd a6c6 f1bd
00000060: d46f 0dbe 326f f83d 0d5e 7cbd cd77 063e
00000070: b5c5 2abd 4e71 6fbd fd42 1d3e 3a06 4abc
00000080: 842c 4ebd 5b17 d23c 6055 d0bd 6cb6 0dbe
00000090: 58cd b6bd e167 0e3d 0f8b 29be e93e bd3d
000000a0: 5e8b 6e3c 7aa9 efbc 8069 183d 7808 4a3d
000000b0: fd0b c8bc bf00 d13d 55fe 5cbe 3194 5a3e
000000c0: f56a bc3d 391b 963d 6496 46be f367 e33d
000000d0: 2372 7cbd 0504 3fbd 2a88 cdbd 83d7 22be
000000e0: 060e 703d 8565 57be 313c 4dbe b04a 113d
000000f0: ba67 a23c 9e71 1fbc c0fc e4bd f699 03bc
00000100: 3d78 0cbc b774 873c 4207 51be 7b66 3a3e
00000110: 823c a83d 8aaf 27be 4670 07be b70e 0bbe
00000120: 3cf1 21bd 1ee3 e73d 00d3 593d 1183 d73d
00000130: fecc 9fbd 91d1 31bd c4e9 223c f292 cabd
00000140: 77dc d0bd 4d9f 503d cb53 963d eac9 e43c
00000150: a400 1e3d 7dc6 553d 4a0b 00bd f419 d1bc
00000160: 76fb aebc aa8f 583d eb5b 3a3d 09ee 27be
00000170: 6b6d cfbc fa20 3a3e 2f3a f4bc ae30 d4bd
00000180: 6285 e13d 7034 da3a 4952 98bb df08 373e
00000190: f277 5ebd b0e3 d6bd 1b83 ee3d e70a d9bd
000001a0: 58b5 0cbe c0ff 993d 54af cfbc 9505 56be
000001b0: b171 81bd 2bac 4b3d fc97 d13c 7644 2cbd
000001c0: e688 fcbc 6aa6 853c abd4 2cbe 9425 d8bd
000001d0: 9c8f dc3d f04c fc3d 1033 fdbd 3182 20be
000001e0: e487 e53d 40a0 433e 6e29 27bd ed28 683e
000001f0: 18bf 4dbc eb4e 4a3e 0e75 a1bd 557a 293d
00000200: cce6 133e 04c7 a23d a4e7 3dbd de2a ce3c
00000210: 6de0 023e 7837 c8bd 8917 6ebe 992d 53be
00000220: 5c89 2cbe 7993 01be 8552 dbbd 6328 ddbd
00000230: b197 303e 2c0e 403e 8ea5 1c3d 869e 933d
00000240: dc29 a13d fd29 c6bc da46 1bbe 4f5b cbbd
00000250: 4b24 a03d 1f46 4fbd 3498 51bd 0faa 0abe
00000260: 8d5b 99bd 801e cebc 2606 bdbd 5e4a a2bc
00000270: 74cc 523c 55a6 24bc 3c0b 2abc 6c07 02be
00000280: d96b 0a3d a929 3bbe 16ce 493d 231d 24be
00000290: ccc9 25be 2262 213e 353e 01be 3715 a13c
000002a0: 5b05 b03d ccfd d3bd 8f4e 06bc ce58 aabc
000002b0: f04e 04bc 5594 f53b 9213 1abe 7c42 19be
000002c0: 14dc 273d f1b0 283e b29b e0bd 59af dd3d
000002d0: 734f 973d d96e 3ebe eadc 043e 8e7d 033e
000002e0: afd6 56bd bf60 223e 6646 313e 2ea3 283e
000002f0: 90ee 3d3e d515 823d d7d1 2f3d a065 1cbd
00000300: 3a23 203a 2e7e 303e e628 fd3c c0da 2e3c
00000310: 36d3 1ebd 6dac 4e3b f1a0 0b3e fb48 123e
00000320: 2dca 053c de4c b53d 05cd 193e 96f9 ae3d
00000330: 9921 f1bd 509f 283e 30e0 25be 4378 013e
00000340: ad3d 32be efc3 133e bc18 193d ec5d 65be
00000350: 5b1d d93d 16e1 2dbc 902f 1ebe f616 febd
00000360: 6e64 333e 2c2a fb3d 642b 80bc 032d 6c3d
00000370: 95f9 fe3d 7abb a53c 4a55 293e 5365 733d
00000380: 5313 82bd 8b91 5dbd 32b0 a23c 37d7 053e
00000390: 5904 42be b211 6bbb 7db5 09be 9ac9 d53d
000003a0: d6db 443e 453c 09bd a174 ddbc 0ec1 32bd
000003b0: e804 2dbb be4d 09bd e1b8 16be 731c babd
000003c0: d07d 2e3c 219d f23c 0ecb 73bd 82fc 17be
000003d0: 5e64 663e 4fd4 abbd c2c9 e3bb 69ae e23d
000003e0: 75db d4bd 1c30 e5bd 6f2e 293e e302 aabd
000003f0: 0d1d 713e 6b8d 5cbd f626 51bd f301 37bd

shared_layers.3.weight f4 [128, 256]
-0.020417871 0.07775642 0.053447112 -0.017737193 0.041591108 0.01685681 -0.002469176 0.02911313
0.035441197 -0.049413066 -0.056127165 0.037585452 0.022219785 0.07827973 0.06960558 -0.07704311
0.090587944 -0.060791157 0.010562005 -0.032619603 0.023324162 -0.0028781071 0.018029174 -0.02474388
0.10895815 0.011023739 0.075688146 -0.010690702 -0.097418405 -0.04760174 -0.020224316 0.12972891
0.096696675 0.049712185 -0.032898635 0.14454588 -0.024290776 0.1052959 -0.015011931 0.020837089
0.0062277545 0.14110164 -0.093197435 -0.05110347 0.15469313 -0.0027414104 0.0717836 0.1372576
0.027420798 -0.04626415 -0.13288257 0.027239488 0.1064174 -0.0692545 0.020372896 -0.060043972
0.023615425 0.012335936 -0.020235388 0.001900496 0.007512019 0.051560033 0.009757309 0.12133698
0.061624482 0.11183195 -0.06730579 0.09875781 0.055674557 0.017601952 0.045443762 0.101510264
0.03111019 0.008731855 -0.021118306 0.0905508 0.027748706 0.028243957 -0.011185664 0.017908705
0.045128006 -0.020377114 0.069559775 -0.08217374 -0.03974082 -0.007839081 0.051485125 -0.060027387
-0.023480153 0.0478068 0.0950711 0.06338184 -0.052400343 -0.0040885247 -0.0011799139 0.041346177
-0.06934075 0.16770218 -0.018533988 -0.01786802 0.030980559 0.009089785 0.031133294 -0.117935926
-0.077937834 0.049797315 -0.04434878 -0.04284802 -0.045119807 -0.07751211 0.036243103 0.0023716637
-0.04474842 0.009869874 -0.044205453 0.022147564 0.10059927 0.09266941 0.07478507 0.12277945
-0.034835704 0.059823032 0.06437681 0.02693278 -0.029781947 0.034067478 0.038776837 -0.049810935
0.024702612 0.017937908 0.084045246 0.034407616 0.026692517 -0.018970596 0.035478424 0.012188195
-0.017145755 -0.08186087 0.086910374 0.020837104 0.013899401 0.09664799 0.004378967 0.03286452
0.013126575 -0.009856181 -0.029968385 0.08067609 -0.02037912 0.009340624 0.03537625 -0.021797393
0.038654253 0.05857702 -0.018706687 0.01979035 0.05775079 -0.00721406 0.08807815 -0.024605136
-0.0471274 -0.016133547 0.02112287 0.09917963 -0.021813858 0.1242972 -0.049436733 -0.011885533
-0.017691465 0.013809927 0.033615056 -0.106327154 0.10674147 0.12416088 -0.043343205 0.0825548
0.015327866 0.05115573 0.091107994 -0.012089255 -0.0053587123 -0.027252283 -0.082225084 -0.017701892
0.026138319 0.047495265 -0.013905158 0.03300082 0.107510515 0.0975333 0.009598601 -0.08185191
0.07535871 -0.007918706 0.030184299 0.017045485 0.053936686 0.007573587 0.08018489 0.03493911
0.001419685 0.04126613 0.010764256 0.004946513 0.022188613 0.095576204 0.04155495 0.08375397
-0.0046367156 0.021818161 -0.009602574 0.07288292 -0.049754955 0.022723299 0.02142804 -0.06541353
0.0180319 -0.029239653 0.026289508 0.024093067 0.0801275 -0.053138293 0.02515493 0.017735174
0.012523594 0.09653545 -0.009356 -0.109525554 -0.063681595 0.06237812 0.060320158 -0.014441451
0.009387976 0.04854432 0.05882244 -0.083639085 -0.06931138 0.02715501 0.041177925 0.031601366
0.066240765 0.096737474 0.020402005 0.085952215 0.07441493 -0.0548566 0.054985296 -0.06519151
0.0550916 -0.032628875 -0.06689667 0.03894471 0.009472196 0.015785249 -0.040478405 0.080087125
00000000: 6143 a7bc c23e 9f3d 5ceb 5a3d 974d 91bc
00000010: 705b 2a3d 4b17 8a3c e6d1 21bb a97e ee3c
00000020: ca2a 113d 5b65 4abd 99e5 65bd 34f3 193d
00000030: 4406 b63c 2051 a03d 5f8d 8e3d c7c8 9dbd
00000040: 2c86 b93d 2600 79bd 430c 2d3c 229c 05bd
00000050: 5012 bf3c a09e 3cbb ebb1 933c adb3 cabc
00000060: 7325 df3d ea9c 343c 6302 9b3d 0e28 2fbc
00000070: 4d83 c7bd 0bfa 42bd 77ad a5bc a8d7 043e
00000080: e808 c63d 019f 4b3d b8c0 06bd d603 143e
00000090: 73fd c6bc 60a5 d73d 9af4 75bc 8bb2 aa3c
000000a0: 3112 cc3b f37c 103e 4cde bebd df51 51bd
000000b0: e067 1e3e 3ca9 33bb 4803 933d 428d 0c3e
000000c0: 95a1 e03c 7a7f 3dbd 5e12 08be 5925 df3c
000000d0: 5ef1 d93d 4ed5 8dbd 0fe5 a63c abf0 75bd
000000e0: 2375 c13c aa1c 4a3c afc4 a5bc 101a f93a
000000f0: 6227 f63b 9d30 533d 1fdd 1f3c 867f f83d
00000100: f469 7c3d 2608 e53d 9ed7 89bd 8941 ca3d
00000110: 010b 643d f831 903c 3d23 3a3d 9de4 cf3d
00000120: ccda fe3c 0e10 0f3c 4c00 adbc b372 b93d
00000130: 4151 e33c df5f e73c 1344 37bc 47b5 923c
00000140: 25d8 383d e8ed a6bc 5b75 8e3d b54a a8bd
00000150: 45c7 22bd 7d6f 00bc 11e2 523d 47df 75bd
00000160: 7359 c0bc 10d1 433d a3b4 c23d 57ce 813d
00000170: bea1 56bd 08f9 85bb 57a7 9aba 9c5a 293d
00000180: 8602 8ebd 1fba 2b3e 97d4 97bc f45f 92bc
00000190: f1ca fd3c 52ed 143c 400b ff3c 6488 f1bd
000001a0: df9d 9fbd 45f8 4b3d 11a7 35bd 6881 2fbd
000001b0: 8ccf 38bd abbe 9ebd a673 143d ea6d 1b3b
000001c0: 1f4a 37bd 41b5 213c c710 35bd cf6e b53c
000001d0: fd06 ce3d 76c9 bd3d ea28 993d cb73 fb3d
000001e0: e2af 0ebd ff08 753d fdd7 833d 22a2 dc3c
000001f0: 45f9 f3bc 578a 0b3d 76d4 1e3d 8d06 4cbd
00000200: 225d ca3c 85f2 923c ea1f ac3d 00ef 0c3d
00000210: 44aa da3c 3968 9bbc d351 113d ffb0 473c
00000220: 4175 8cbc aca6 a7bd 11fe b13d 93b2 aa3c
00000230: 50ba 633c 62ef c53d 707d 8f3b f29c 063d
00000240: d910 573c d27b 21bc 4280 f5bc 8239 a53d
00000250: 1df2 a6bc 6b09 193c b0e6 103d 7290 b2bc
00000260: ec53 1e3d 75ee 6f3d c43e 99bc 5f1f a23c
00000270: 188c 6c3d ec63 ecbb 5162 b43d b690 c9bc
00000280: a908 41bd 802a 84bc de09 ad3c b11e cb3d
00000290: fab2 b2bc 888f fe3d 2c7e 4abd 8abb 42bc
000002a0: b1ed 90bc 0843 623c f1af 093d 0dc2 d9bd
000002b0: 469b da3d 0f48 fe3d a588 31bd 7e12 a93d
000002c0: bb21 7b3c ac88 513d d496 ba3d 0312 46bc
000002d0: 2398 afbb 2e40 dfbc a065 a8bd 8f03 91bc
000002e0: 0720 d63c 658a 423d 76d2 63bc de2b 073d
000002f0: 792e dc3d 8abf c73d 7343 1d3c f9a1 a7bd
00000300: ab55 9a3d 76bd 01bc 1045 f73c f9a2 8b3c
00000310: b7ec 5c3d da2b f83b fa37 a43d 501c 0f3d
00000320: b914 ba3a ac06 293d 905c 303c 5c16 a23b
00000330: e5c4 b53c 75bd c33d 8635 2a3d 3487 ab3d
00000340: 97ef 97bb 00bc b23c 1d54 1dbc a443 953d
00000350: dacb 4bbd 3626 ba3c db89 af3c 87f7 85bd
00000360: a3b7 933c ff87 efbc 185d d73c d35e c53c
00000370: e319 a43d 8aa7 59bd b611 ce3c 5b49 913c
00000380: c32f 4d3c 61b4 c53d e949 19bc ef4e e0bd
00000390: 7f6b 82bd 3380 7f3d 4512 773d d69b 6cbc
000003a0: 06d0 193c 69d6 463d cdef 703d f84a abbd
000003b0: 20f3 8dbd 2f74 de3c 2faa 283d 6f70 013d
000003c0: 3da9 873d 4c1e c63d 1b22 a73c b707 b03d
000003d0: db66 983d 50b1 60bd 4338 613d 2083 85bd
000003e0: bba7 613d dba5 05bd 1f01 89bd 7d84 1f3d
000003f0: 4531 1b3c 1150 813c afcc 25bd b804 a43d

shared_layers.3.bias f4 [128]
-0.0046742717 0.033634964 0.03335144 -9.815581e-05 0.042999044 0.07774768 0.059224095 0.026327267
-0.0114707295 0.07787061 0.006543627 0.033998754 0.054803867 -0.052786488 0.010417003 0.052616343
0.06749828 0.030196346 0.057423096 0.011006659 -0.057654772 0.051045634 0.029443601 0.026215672
0.0465042 0.03082129 0.020569475 -0.044781826 -0.0756943 0.014802939 0.057833422 0.04447872
0.0529026 -0.023365287 0.0075207604 0.018516893 -0.036441278 0.0077457954 -0.03231937 -0.038752936
0.06287699 0.045884848 -0.011871418 0.061384395 0.026027145 0.017653106 0.025761172 -0.03425525
-0.028211901 0.028609848 -0.015428652 0.06533587 -0.027908584 -0.015127275 -0.010782367 -0.019353405
0.05419631 -0.03293625 -0.011895895 0.012320865 0.013874788 0.019649731 0.0039346176 0.033670906
0.019844422 0.027324995 0.10100773 0.050202373 0.01084354 0.07250235 0.08938422 0.06451561
-0.068116516 0.0073782247 -0.019640747 -0.036660034 -0.056571707 0.0075004473 -0.01369398 0.046974752
-0.039466884 0.028217534 -0.060560185 0.025751583 0.083138585 -0.009123196 0.10470394 -0.038431443
0.005327867 -0.027743503 0.073167354 0.02704472 -0.07810064 0.019001875 0.0115809385 0.0016522633
0.062050182 0.0812773 0.052955743 -0.0032733434 0.07259517 0.04884319 0.08376455 0.05772445
0.020444654 0.061820194 0.051163804 0.05769731 0.002280335 -0.029224137 0.0813139 -0.028080186
-0.021583391 -0.023519214 0.010823228 0.077620685 0.036043864 -0.006083797 0.040862516 0.021743082
-0.018824812 0.08270877 -0.07814704 0.006192834 0.08538559 0.009302915 0.04705426 -0.008484651
00000000: a22a 99bb d1c4 093d 859b 083d 00d9 cdb8
00000010: c41f 303d 2d3a 9f3d f794 723d 48ac d73c
00000020: baef 3bbc a07a 9f3d ec6b d63b 4742 0b3d
00000030: 057a 603d a536 58bd 14ac 2a3c 3c84 573d
00000040: 8a3c 8a3d 545e f73c 7b34 6b3d 4655 343c
00000050: 6927 6cbd 3a15 513d b533 f13c 40c2 d63c
00000060: 307b 3e3d ee7c fc3c 5181 a83c 266d 37bd
00000070: 9d05 9bbd 0788 723c bde2 6c3d 512f 363d
00000080: 66b0 583d 8f68 bfbc b670 f63b bdb0 973c
00000090: 7343 15bd 71d0 fd3b 5161 04bd 66bb 1ebd
000000a0: a7c5 803d c0f1 3b3d 5680 42bc 346e 7b3d
000000b0: e136 d53c 3f9d 903c 1809 d33c 3c4f 0cbd
000000c0: a51c e7bc 335f ea3c 75c8 7cbc d0ce 853d
000000d0: 8ba0 e4bc 64d8 77bc 86a8 30bc 088b 9ebc
000000e0: f3fc 5d3d 29e8 06bd 00e7 42bc 74dd 493c
000000f0: 1453 633c 79f8 a03c f7ed 803b 81ea 093d
00000100: c590 a23c abd8 df3c 24dd ce3d 01a1 4d3d
00000110: 1aa9 313c 1d7c 943d 130f b73d c320 843d
00000120: ac80 8bbd 09c5 f13b a2e5 a0bc d528 16bd
00000130: bcb7 67bd 50c6 f53b b75c 60bc 9968 403d
00000140: 07a8 21bd 7528 e73c f50d 78bd fcf4 d23c
00000150: 9044 aa3d 7579 15bc 056f d63d 4a6a 1dbd
00000160: 6395 ae3b 5846 e3bc c4d8 953d e38c dd3c
00000170: 3af3 9fbd d2a9 9b3c fabd 3d3c c290 d83a
00000180: 5528 7e3d b774 a63d 1fe8 583d 9785 56bb
00000190: c7ac 943d cc0f 483d c08c ab3d 7970 6c3d
000001a0: 8c7b a73c 2c37 7d3d 2391 513d 0454 6c3d
000001b0: ac71 153b 7567 efbc e787 a63d 6b08 e6bc
000001c0: a7cf b0bc 5eab c0bc e953 313c 98f7 9e3d
000001d0: bba2 133d 975a c7bb 745f 273d 8c1e b23c
000001e0: 7e36 9abc 3763 a93d 8e0b a0bd 42ed ca3b
000001f0: a4de ae3d 416b 183c f8bb 403d 3503 0bbc

task_layers.0.0.weight f4 [64, 128]
-0.046651095 -0.121181384 -0.0908284 0.0086776465 0.084662914 -0.14624001 0.04379675 0.2398523
-0.027967263 -0.13852733 -0.02762953 0.0035611473 0.106781654 0.04174217 -0.099225864 -0.14278759
-0.015812589 -0.0783739 0.02916544 0.031508125 0.04112257 0.113170855 0.14420143 -0.10427459
-0.11351919 0.08676683 0.3465147 -0.023318883 0.07104391 -0.006783499 -0.110160194 0.11614164
0.05690553 -0.12948287 -0.027721094 -0.0189356 0.034097437 -0.009228726 -0.020319415 0.109591715
-0.010227311 0.032149877 -0.01718036 0.098020144 -0.08520339 -0.023524856 -0.015515323 0.03542453
0.03478773 -0.04908016 -0.04781869 0.09523357 0.0060626213 -0.006563166 0.056149907 -0.06350221
0.0032797153 0.071243964 0.012952998 0.0020996954 -0.043595485 -0.085384764 -0.059610046 -0.1625134
-0.13804315 -0.06838041 -0.044223454 0.035773154 0.026492234 -0.084834255 0.121693544 -0.04027983
0.16314569 -0.07369296 0.051171653 0.061977718 -0.063006274 0.08826215 0.09684421 -0.2637243
0.03256831 -0.068131305 0.003439721 -0.028253742 0.014445991 0.03087825 0.07174248 -0.09389573
-0.053510543 0.06692854 0.119240955 0.27309555 -0.07513019 0.0035828904 0.051385365 0.06837875
0.034549702 -0.15059432 -0.016320191 0.09151286 0.069542065 -0.05537648 0.027479092 -0.09376704
0.11785342 0.07651218 0.09365801 -0.03956494 -0.08771625 0.099258825 -0.053942744 0.06443101
0.15065056 0.05343816 0.11969668 0.0322135 0.091545746 -0.004560962 -0.013462144 -0.037814703
-0.11411834 -0.090432316 0.013588026 0.12641357 -0.19655192 0.023323096 0.056305792 -0.0372098
0.025265142 0.19651838 0.11576591 0.042405315 -0.046952546 0.16127148 -0.0011197012 -0.08115945
-0.0014557377 0.20014329 0.08850674 0.022483144 0.024416227 0.06452746 0.17174105 0.21431273
0.075702816 0.019094288 0.054437872 0.09497169 0.12596865 -0.013530366 0.018050008 0.18606833
0.18408957 -0.019916456 -0.2734433 0.039144415 0.039045475 -0.0036781398 0.07097811 -0.06595452
0.09486816 0.16512822 0.11475213 -0.019482415 -0.037637543 -0.0077860234 0.13470589 -0.0929754
0.14502557 0.013712112 0.04817155 -0.039521664 0.14143185 0.1981722 0.10218064 0.10833938
-0.009201003 0.05570026 0.10638934 0.09151881 -0.06144059 0.11972127 -0.11183592 0.11102157
0.037280444 0.051989917 0.13950634 -0.0066717425 -0.055094123 0.03650421 0.06896882 0.17458598
0.14404355 0.21413094 0.08360655 -0.025833188 0.001315012 0.18837146 0.005331531 0.08443811
-0.030298889 0.1931476 -0.004147751 0.086987965 -0.0076355054 0.00028810187 -0.09766741 0.15091349
0.0419556 0.09083537 -0.052978706 0.0065825596 0.052448478 0.096443176 -0.034030207 0.008408186
0.079323314 -9.0920046e-05 -0.09186774 -0.27154177 -0.025090784 0.06735732 -0.048723612 0.042060584
-0.010699411 0.13124625 0.104734465 0.02424497 0.10469322 0.06820009 3.1447766e-05 0.13673437
-0.04491074 0.05630408 0.029981501 0.08625393 0.0232162 0.011408321 0.039326597 0.00049036136
-0.067281894 -0.08634088 -0.05668553 0.080060385 -0.023579888 0.08187459 0.076602474 0.14230421
0.20265588 0.07684442 -0.0019502926 0.07860461 0.2577141 0.08371096 0.015010484 0.06360183
00000000: 3815 3fbd f22d f8bd 3d04 babd b02c 0e3c
00000010: c063 ad3d f1bf 15be 3964 333d d79b 753e
00000020: 9a1b e5bc 1cda 0dbe 5357 e2bc 2362 693b
00000030: 57b0 da3d d6f9 2a3d ee36 cbbd e936 12be
00000040: 6789 81bc 7f82 a0bd 5cec ee3c aa0e 013d
00000050: 2470 283d 1fc6 e73d 8aa9 133e eb8d d5bd
00000060: c07c e8bd cfb2 b13d 606a b13e 3e07 bfbc
00000070: 787f 913d 1d48 debb ab9b e1bd abdb ed3d
00000080: c615 693d 2897 04be 5917 e3bc d51e 9bbc
00000090: c1a9 0b3d 1534 17bc e774 a6bc 9f71 e03d
000000a0: 7490 27bc 97af 033d d4bd 8cbc c9be c83d
000000b0: 1d7f aebd 33b7 c0bc fb33 7ebc 5019 113d
000000c0: 947d 0e3d 4708 49bd 88dd 43bd d109 c33d
000000d0: f4a8 c63b d40f d7bb 72fd 653d 720d 82bd
000000e0: 7ef0 563b 5be8 913d d038 543c 0b9b 093b
000000f0: 2e91 32bd 35de aebd aa29 74bd ea69 26be
00000100: 2f5b 0dbe 070b 8cbd a723 35bd df86 123d
00000110: 3e06 d93c 95bd adbd 773a f93d 77fc 24bd
00000120: aa0f 273e 56ec 96bd 5e99 513d 59dc 7d3d
00000130: 6f09 81bd c9c2 b43d 4256 c63d df06 87be
00000140: 5966 053d 6d88 8bbd f16c 613b 6474 e7bc
00000150: e1ae 6c3c 62f4 fc3c b9ed 923d 684c c0bd
00000160: df2d 5bbd d511 893d 9a34 f43d 2ed3 8b3e
00000170: dbdd 99bd edce 6a3b 7679 523d 280a 8c3d
00000180: fd83 0d3d 6635 1abe ecb1 85bc 186b bb3d
00000190: 126c 8e3d 73d2 62bd d51b e13c ef08 c0bd
000001a0: 225d f13d 6bb2 9c3d c5cf bf3d d90e 22bd
000001b0: 94a4 b3bd 3648 cb3d 11f3 5cbd 68f4 833d
000001c0: 2444 1a3e f9e1 5a3d 8823 f53d 4ef2 033d
000001d0: 567c bb3d 1f74 95bb 5390 5cbc 97e3 1abd
000001e0: e0b6 e9bd 9434 b9bd 50a0 5e3c 8f72 013e
000001f0: e844 49be 1410 bf3c e7a0 663d 4e69 18bd
00000200: d8f8 ce3c 1d3c 493e ad16 ed3d 32b1 2d3d
00000210: 5051 40bd 5a24 253e f0c2 92ba ed36 a6bd
00000220: 74ce beba 5df2 4c3e 0643 b53d 922e b83c
00000230: 8a04 c83c f926 843d e3dc 2f3e cc74 5b3e
00000240: 140a 9b3d a06b 9c3c 3ffa 5e3d 8480 c23d
00000250: edfd 003e 78ae 5dbc 9cdd 933c b288 3e3e
00000260: fa81 3c3e d627 a3bc c300 8cbe e555 203d
00000270: 26ee 1f3d f20c 71bb f95c 913d 2a13 87bd
00000280: 3d4a c23d 5f17 293e 2a03 eb3d 9699 9fbc
00000290: d329 1abd e621 ffbb 57f0 093e e369 bebd
000002a0: 9581 143e c4a8 603c 884f 453d 78e1 21bd
000002b0: 83d3 103e a7ed 4a3e 1544 d13d 09e1 dd3d
000002c0: cebf 16bc f525 643d a7e2 d93d 376e bb3d
000002d0: 21a9 7bbd 6d30 f53d 3b0a e5bd 475f e33d
000002e0: 61b3 183d 61f3 543d c0da 0e3e a29e dabb
000002f0: 60aa 61bd 7085 153d 863f 8d3d abc6 323e
00000300: 2780 133e 2445 5b3e e939 ab3d 1fa0 d3bc
00000310: 7b5c ac3a 73e4 403e 20b4 ae3b e3ed ac3d
00000320: 6035 f8bc 7cc8 453e dbe9 87bb bf26 b23d
00000330: 4333 fabb 610c 9739 da05 c8bd 1189 1a3e
00000340: a3d9 2b3d e507 ba3d 3300 59bd 83b2 d73b
00000350: 37d4 563d 0084 c53d 4263 0bbd 7dc2 093c
00000360: 4374 a23d 54ac beb8 2725 bcbd 8607 8bbe
00000370: 308b cdbc a2f2 893d 6992 47bd b847 2c3d
00000380: 954c 2fbc 6b65 063e 067f d63d 639d c63c
00000390: 6669 d63d 7dac 8b3d c8e6 0338 1804 0c3e
000003a0: 53f4 37bd 1b9f 663d c49b f53c e7a5 b03d
000003b0: e62f be3c f7e9 3a3c ed14 213d 988b 003a
000003c0: 17cb 89bd 7dd3 b0bd 162f 68bd b3f6 a33d
000003d0: 9c2a c1bc ddad a73d c2e1 9c3d 32b8 113e
000003e0: 0685 4f3e 9b60 9d3d f6a0 ffba 74fb a03d
000003f0: 1af3 833e a770 ab3d 88ee 753c ad41 823d

task_layers.0.0.bias f4 [64]
0.10483554 -0.03319786 -0.06330166 0.090797246 0.11158499 0.101979285 -0.035174813 0.10171841
-0.018845636 0.10626258 0.06275184 0.12769282 0.0010323925 0.1839008 0.117866285 0.024334127
0.04546423 0.07354253 0.13633424 0.08944893 -0.06888439 -0.048368216 -0.012527133 0.08572865
0.040106203 0.18121982 0.0507522 0.0075797816 0.07872886 0.066356674 0.0075673657 0.058445364
-0.02686641 -0.05986627 0.15759209 -0.07016052 0.16352965 0.16657445 0.10527941 0.10749394
-0.028229479 0.051314335 0.12229694 -0.030135395 -0.017414333 0.118553296 0.14892508 0.06572477
0.13487259 0.03245654 0.12099667 0.02047475 -0.10824405 -0.06351048 0.086854324 0.055902563
0.079320416 -0.07489066 0.018985044 0.07275387 0.109393746 0.036374692 -0.0006022868 0.012015581
00000000: 04b4 d63d 7bfa 07bd 4da4 81bd e8f3 b93d
00000010: ac86 e43d 84da d03d 7713 10bd be51 d03d
00000020: 2a62 9abc 32a0 d93d 0984 803d e8c1 023e
00000030: 5851 873a 7e50 3c3e e163 f13d 5d58 c73c
00000040: b338 3a3d 779d 963d 349b 0b3e 0031 b73d
00000050: 4213 8dbd c01d 46bd 9b3e 4dbc 8192 af3d
00000060: 6746 243d b091 393e 8ae1 4f3d d15f f83b
00000070: 993c a13d 02e6 873d aaf7 f73b 6864 6f3d
00000080: f216 dcbc 5536 75bd d25f 213e 52b0 8fbd
00000090: 5174 273e 7e92 2a3e bb9c d73d c825 dc3d
000000a0: 8241 e7bc fb2e 523d d176 fa3d 81de f6bc
000000b0: 81a8 8ebc 12cc f23d d17f 183e b59a 863d
000000c0: 0a1c 0a3e 26f1 043d 1acd f73d aaba a73c
000000d0: 0eaf ddbd c811 82bd aee0 b13d 16fa 643d
000000e0: be72 a23d 4660 99bd 8686 9b3c fbff 943d
000000f0: d409 e03d a1fd 143d c8e2 1dba 00dd 443c

task_layers.0.3.weight f4 [1, 64]
0.22692764 -0.09643418 -0.15565057 0.17825004 0.20081261 0.22072868 -0.15516028 0.118313506
-0.22059426 0.26407248 0.26969042 0.21019782 -0.20732133 0.2218261 0.22715971 -0.15197265
-0.14997229 0.19879226 0.21461228 0.24787612 -0.20451176 -0.26134488 0.027192054 0.20006247
0.2204252 0.3346766 -0.12755331 -0.20302875 0.19796784 -0.16830872 0.16285454 0.17349838
-0.20569567 -0.13114913 0.26323515 -0.12233805 0.2222979 0.17599747 0.21451692 0.25608718
-0.11374612 0.16515145 0.21877806 -0.13364388 -0.21580294 0.16713881 0.16482268 -0.13783865
0.27640137 -0.18689822 0.25618666 -0.16973539 -0.14947096 -0.17934638 0.23256142 0.18647087
0.17711134 -0.20593217 0.15410863 0.21484333 0.21201883 -0.13699475 -0.12794149 -0.15042427
00000000: b85f 683e 497f c5bd dd62 1fbe 2e87 363e
00000010: d2a1 4d3e b306 623e 56e2 1ebe 5a4e f23d
00000020: 76e3 61be 8234 873e dd14 8a3e 193e 573e
00000030: 0b4c 54be 6226 633e 8e9c 683e b89e 1bbe
00000040: 5692 19be 3390 4b3e 52c3 5b3e 3dd3 7d3e
00000050: 886b 51be ffce 85be dfc1 de3c 2ddd 4c3e
00000060: 25b7 613e bb5a ab3e 569d 02be c5e6 4fbe
00000070: 15b8 4a3e 1f59 2cbe 57c3 263e 8fa9 313e
00000080: e3a1 52be f54b 06be c2c6 863e 5f8c fabd
00000090: 10a2 633e ae38 343e 53aa 5b3e dc1d 833e
000000a0: baf3 e8bd 761d 293e 5b07 603e f1d9 08be
000000b0: 72fb 5cbe 7026 2b3e 47c7 283e 9325 0dbe
000000c0: 7b84 8d3e 3f62 3fbe e62a 833e 1dcf 2dbe
000000d0: ea0e 19be 94a6 37be 9524 6e3e 38f2 3e3e
000000e0: ad5c 353e e2df 52be a7ce 1d3e e4ff 5b3e
000000f0: 771b 593e 5a48 0cbe 1803 03be d208 1abe

task_layers.1.0.weight f4 [64, 128]
0.20635572 0.12089819 -0.022796927 -0.06341118 0.038716517 0.030723771 -0.026606029 0.071246244
0.14151615 0.08605667 0.21669915 0.106022105 -0.16810413 0.01966691 0.020298988 -0.057286944
0.16740428 0.120957814 0.11444464 0.22486478 0.052987255 -0.026194781 0.03633031 0.07637977
0.03820305 -0.1201376 0.048974797 0.08520964 -0.00846982 0.026154215 0.0128406305 -0.010957822
0.21250741 0.041048504 -0.015898239 -0.078076854 0.06316929 0.01136576 0.10942329 0.1674132
0.11766411 0.03226565 -0.038812865 -0.065073475 0.0019399761 0.12686008 -0.039380856 0.13458475
-0.08478524 0.036297344 0.09738392 0.0821176 -0.1539497 -0.17258388 0.017559629 0.122008085
0.19372389 0.07551579 0.19472207 -0.091089174 -0.07924768 -0.18497063 -0.0010481558 -0.010488178
-0.08875745 -0.007530637 -0.026932716 0.19175407 0.21448857 0.04888017 0.039275147 0.03882144
0.12598506 0.04984083 0.19935381 0.08771397 0.012636894 0.099223755 0.12572241 0.11089771
-0.008102626 -0.08238131 0.08744627 -0.019748328 0.069897585 0.17475909 0.017115308 0.085125245
0.01448847 0.11327172 -0.11678341 0.050824467 0.036569916 0.16703603 0.07086769 0.0675859
-0.18287106 -0.07126498 0.028458785 0.056562267 0.22760871 -0.0027484142 0.021404918 0.017901568
0.1503615 0.13600232 0.07161985 0.057823844 -0.03370822 0.15636556 0.20397168 0.061476335
0.047088627 -0.1072903 -0.025709061 0.027442774 0.11246052 0.117073506 -0.16705093 0.07518454
0.028929837 0.21874894 -0.0548832 0.06803251 -0.03990937 0.1337086 0.2282212 0.0043222765
0.038136482 -0.12367444 -0.052564073 -0.010903054 -0.06694897 0.03709084 -0.007358353 -0.09206334
-0.03778427 -0.004952462 0.020300642 -0.06901454 -0.026138006 0.03222609 -0.09708414 -0.004436228
-0.0223986 0.073081076 -0.08712715 -0.08334782 0.04728283 0.05264406 -0.06376972 -0.09020438
-0.099929884 0.01886304 0.05767039 -0.014723368 -0.016131116 -0.036748886 -0.016332924 0.048943967
-0.109232165 0.0099436855 -0.035120357 -0.07636339 -0.026439637 -0.053447723 -0.08132656 -0.07839096
-0.07958018 0.027216805 0.0138595905 -0.040076446 -0.011776965 0.012943082 0.0088257445 -0.07721451
0.074059114 -0.025044255 0.014888563 -0.061797418 0.041061398 0.0033155757 -0.034624696 0.026933055
0.015167311 0.028132753 0.06059123 0.0004894243 0.049481004 -0.06912011 0.021329269 -0.121407054
-0.036323525 -0.08570074 0.04908247 0.03255851 -0.117288925 0.031969573 0.06688449 -0.0131223705
-0.022632286 -0.0454672 -0.094468854 0.07157348 0.11352016 -0.035741385 -0.007594901 -0.014993844
0.031747255 0.062310904 0.041534558 -0.038142122 -0.033270895 -0.096491106 -0.037798934 -0.038851865
-0.08188803 0.095075235 0.038703203 0.03314531 -0.0530711 0.011010022 -0.092724584 -0.052690286
-0.014651333 0.031438574 -0.01628329 0.02835022 -0.016175834 0.00023242173 0.080928065 -0.007930247
0.052507028 -0.07300503 -0.063112974 -0.08847482 -0.005252035 -0.053864338 -0.10281522 -0.06346741
-0.043041497 1.4301667e-05 -0.13369483 -0.02106351 0.06815418 -0.008194245 -0.074370086 -0.08596871
-0.08386757 0.06933808 -0.04847251 -0.055336837 -0.093653634 0.008516945 0.0014897782 0.041293878
00000000: ea4e 533e 7899 f73d 9fc0 babc b9dd 81bd
00000010: 3695 1e3d 6bb0 fb3c e3f4 d9bc 8de9 913d
00000020: 9ce9 103e 7b3e b03d 62e6 5d3e 1e22 d93d
00000030: 7d23 2cbe 801c a13c 104a a63c b7a5 6abd
00000040: 076c 2b3e bbb8 f73d f461 ea3d f442 663e
00000050: 2a09 593d 7096 d6bc 17cf 143d ff6c 9c3d
00000060: cd7a 1c3d b40a f6bd cc99 483d 6482 ae3d
00000070: 00c5 0abc 5d41 d63c 8261 523c 7088 33bc
00000080: 8b9b 593e 7a22 283d 063d 82bc c2e6 9fbd
00000090: e75e 813d 7437 3a3c 5119 e03d 5e6e 2b3e
000000a0: e2f9 f03d fc28 043d 3dfa 1ebd 3e45 85bd
000000b0: cc46 fe3a 9ce7 013e d24d 21bd 96d0 093e
000000c0: e2a3 adbd 86ac 143d 3871 c73d 462d a83d
000000d0: fda4 1dbe d4b9 30be 36d9 8f3c 60df f93d
000000e0: 8e5f 463e 06a8 9a3d 3965 473e f68c babd
000000f0: 9c4c a2bd f168 3dbe 4662 89ba 9bd6 2bbc
00000100: 77c6 b5bd 90c3 f6bb 00a2 dcbc 2e5b 443e
00000110: e4a2 5b3e 9336 483d fade 203d 3b03 1f3d
00000120: 3a02 013e e625 4c3d 6823 4c3e 62a3 b33d
00000130: fa0a 4f3c d335 cb3d 60bd 003e 571e e33d
00000140: e0c0 04bc 88b7 a8bd 0817 b33d 3fc7 a1bc
00000150: 7726 8f3d 0cf4 323e 6735 8c3c 2556 ae3d
00000160: 0c61 6d3c 01fb e73d 242c efbd 512d 503d
00000170: 56ca 153d 7e0b 2b3e 1423 913d 7a6a 8a3d
00000180: 8d42 3bbe 60f3 91bd 6622 e93c d6ad 673d
00000190: 4212 693e bd1e 34bb 5e59 af3c 4fa6 923c
000001a0: 5df8 193e 3144 0b3e 6ead 923d b2d8 6c3d
000001b0: a111 0abd 4b1e 203e f4dd 503e 9cce 7b3d
000001c0: 01e0 403d 04bb dbbd cf9b d2bc abcf e03c
000001d0: b351 e63d 3cc4 ef3d 660f 2bbe 5afa 993d
000001e0: 44fe ec3c b9ff 5f3e 35cd 60bd a154 8b3d
000001f0: 0278 23bd e8ea 083e d1b2 693e e2a1 8d3b
00000200: 0035 1c3d 0649 fdbd 6d4d 57bd b9a2 32bc
00000210: 8b1c 89bd 91ec 173d 571e f1bb b48b bcbd
00000220: aec3 1abd 4348 a2bb 884d a63c 7f57 8dbd
00000230: 5f1f d6bc 81ff 033d 0dd4 c6bd c75d 91bb
00000240: 457d b7bc 88ab 953d b86f b2bd 43b2 aabd
00000250: a4ab 413d 4ca1 573d b399 82bd 13bd b8bd
00000260: 0aa8 ccbd a986 9a3c c937 6c3d 483a 71bc
00000270: 6725 84bc 0086 16bd a0cc 85bc 7879 483d
00000280: 1db5 dfbd d7ea 223c 5dda 0fbd 6964 9cbd
00000290: f097 d8bc 00ec 5abd 8a8e a6bd 718b a0bd
000002a0: effa a2bd c7f5 de3c 5613 633c 3327 24bd
000002b0: 2cf4 40bc 380f 543c db99 103c a422 9ebd
000002c0: 4eac 973d 9c29 cdbc 29ef 733c 4a1f 7dbd
000002d0: ff2f 283d 214a 593b a0d2 0dbd b6a2 dc3c
000002e0: 5080 783c a976 e63c 822e 783d b54c 003a
000002f0: 98ac 4a3d d88e 8dbd b8ba ae3c 43a4 f8bd
00000300: fac7 14bd df83 afbd b30a 493d 125c 053d
00000310: 2d35 f0bd 87f2 023d bcfa 883d 36ff 56bc
00000320: 5867 b9bc d13b 3abd e378 c1bd 1e95 923d
00000330: 427d e83d 8f65 12bd a6de f8bb bda8 75bc
00000340: 6909 023d b839 7f3d 2420 2a3d ea3a 1cbd
00000350: 1047 08bd 219d c5bd 0ed3 1abd 2223 1fbd
00000360: e9b4 a7bd ceb6 c23d 4087 1e3d 60c3 073d
00000370: 1561 59bd 6163 343c 63e6 bdbd c5d1 57bd
00000380: 250c 70bc bcc5 003d 8964 85bc b83e e83c
00000390: 2f83 84bc 3cb6 7339 9dbd a53d deed 01bc
000003a0: 9c11 573d a983 95bd 6041 81bd 4932 b5bd
000003b0: 4319 acbb daa0 5cbd c990 d2bd 34fb 81bd
000003c0: 484c 30bd 31f1 6f37 4ce7 08be 628d acbc
000003d0: 6b94 8b3d 2841 06bc 584f 98bd 5d10 b0bd
000003e0: c3c2 abbd 2001 8e3d 1c8b 46bd e1a8 62bd
000003f0: 7acd bfbd a88a 0b3c a944 c33a c523 293d

task_layers.1.0.bias f4 [64]
-0.05385349 -0.10772489 0.14344372 -0.069035195 0.152859 -0.0026093074 0.057697967 0.12824915
0.009194657 -0.05963323 -0.0005830104 -0.026514351 -0.060800508 -0.031870816 0.0030112152 -0.026208563
0.11489092 0.09253115 0.07651047 0.027979935 0.16827178 0.114755414 0.1371193 0.07637489
-0.12341835 -0.030311296 -0.03400157 -0.062151816 0.0771602 -0.102263846 -0.043054335 -0.012829978
0.048299793 0.015870221 0.07247957 0.1423685 -0.106279366 0.11538359 -0.102725774 0.14861381
0.0066718217 0.16238034 -0.002435422 0.05083934 -0.055299435 0.12655267 0.12406539 0.1384781
-0.057166573 0.1738317 0.14556323 0.10441833 -0.12619361 -0.00817549 0.0070795296 -0.06683937
0.13952757 0.13116243 -0.050066426 -0.07464638 -0.09096542 -0.02739694 -0.0623712 -0.03308496
00000000: 7a95 5cbd de9e dcbd e9e2 123e 5362 8dbd
00000010: 1287 1c3e ea00 2bbb b454 6c3d bf53 033e
00000020: 30a5 163c f941 74bd 2ad5 18ba a034 d9bc
00000030: f409 79bd f98a 02bd cf57 453b 57b3 d6bc
00000040: ee4b eb3d f980 bd3d 85b1 9c3d 2d36 e53c
00000050: 704f 2c3e e304 eb3d 0069 0c3e 706a 9c3d
00000060: c3c2 fcbd 654f f8bc 3b45 0bbd e792 7ebd
00000070: 2b06 9e3d b56f d1bd be59 30bd d434 52bc
00000080: 01d6 453d 4402 823c 2b70 943d 0cc9 113e
00000090: ffa8 d9bd 3b4e ec3d e461 d2bd 382e 183e
000000a0: 4c9f da3b 0847 263e 9a9b 1fbb e93c 503d
000000b0: a981 62bd 0697 013e ff15 fe3d 34cd 0d3e
000000c0: 7f27 6abd f000 323e 870e 153e 47d9 d53d
000000d0: e638 01be 7ef2 05bc 66fb e73b 14e3 88bd
000000e0: 51e0 0e3e 724f 063e 7412 4dbd 34e0 98bd
000000f0: 144c babd 8c6f e0bc f278 7fbd 1884 07bd

task_layers.1.3.weight f4 [1, 64]
-0.16336727 0.09815043 0.21279526 0.099623725 0.26352617 -0.113303006 -0.14571783 0.20579459
-0.21992871 -0.16884056 -0.14453678 -0.17849545 -0.21523267 -0.23546198 -0.1940866 -0.16798496
0.28217325 0.23905312 0.26618832 -0.19831789 0.28017822 0.22888169 0.22810061 -0.17730197
-0.16222578 0.12279886 -0.13649638 -0.13265637 0.3286081 -0.13756128 -0.14457335 -0.17287108
-0.17237948 -0.14509411 -0.20794798 0.21811005 -0.21485044 0.2972367 -0.14815612 0.30621848
-0.12988544 0.29376847 -0.1775168 -0.0057304804 -0.16928582 0.24136485 0.22953725 0.2942034
-0.023239538 0.32379997 0.31724492 0.24155104 -0.16344552 -0.15005404 -0.21032245 -0.10193897
0.24220721 0.28409877 -0.23742184 0.0083696665 0.010762418 -0.14075606 0.0115310345 -0.19572943
00000000: c049 27be 1803 c93d 00e7 593e 8607 cc3d
00000010: e7ec 863e 680b e8bd 0e37 15be d1bb 523e
00000020: fe34 61be 8ae4 2cbe 7301 14be 83c7 36be
00000030: f465 5cbe f21c 71be a3be 46be 4004 2cbe
00000040: 0379 903e 57ca 743e d649 883e d813 4bbe
00000050: 8573 8f3e f65f 6a3e 3593 693e a68e 35be
00000060: 841e 26be f87d fb3d b5c5 0bbe 12d7 07be
00000070: 523f a83e dddc 0cbe 090b 14be 1e05 31be
00000080: 3f84 30be 8d93 14be 51f0 54be 3e58 5f3e
00000090: c101 5cbe 692f 983e 3db6 17be abc8 9c3e
000000a0: b000 05be d268 963e f7c6 35be c1c6 bbbb
000000b0: 4359 2dbe 5928 773e d00b 6b3e d4a1 963e
000000c0: d860 bebc 1cc9 a53e ed6d a23e 2859 773e
000000d0: 435e 27be c4a7 19be c55e 57be 61c5 d0bd
000000e0: 2b05 783e 6575 913e b61e 73be ed20 093c
000000f0: da54 303c 5b22 10be aaec 3c3c 4c6d 48be

task_layers.2.0.weight f4 [64, 128]
-0.057616327 -0.053059306 -0.031875893 -0.013775399 0.018493697 0.022475623 0.17910993 0.058871046
-0.18234283 0.03430627 -0.01447715 -0.18013506 0.12850764 0.014169557 -0.03933533 -0.026400818
-0.05679385 0.010308821 0.09210213 -0.025500001 -0.007836353 0.1269066 0.11467245 -0.070531994
0.03433464 -0.029726036 0.04675493 0.052484542 -0.061084654 -0.072951175 0.10688758 0.14775482
0.063403144 -0.021765308 -0.020439751 -0.0052474015 -0.039934482 0.13259682 -0.020761883 -0.03978396
0.01017421 0.22176604 0.16043067 0.10577655 0.0016529884 0.06702721 0.020999197 0.09806052
0.08474537 0.22328064 0.061306648 0.039277516 0.105436355 -0.0008288514 0.025927585 -0.050999153
0.067986354 -0.054482434 0.01835186 0.102823205 0.011141868 0.08602388 0.17995554 0.02529745
-0.004290203 0.08449156 0.12756959 -0.036455143 0.071047015 0.03685728 0.24823786 -0.011744175
-0.050758183 -0.07007116 0.039760612 -0.057300158 -0.03641849 0.026008425 -0.07083176 0.033168234
-0.046522714 0.0815847 -0.0550613 0.026722934 0.0974291 -0.032505326 0.14875965 0.0023248799
0.026517458 -0.14328946 0.03282111 -0.011783141 -0.027851073 0.09536438 0.22249514 0.17987737
-0.0033771114 -0.044230323 -0.027954865 0.081821084 -0.03334637 0.06606361 -0.19114478 0.16029204
-0.060390417 0.110137135 0.18243404 0.1574987 -0.015875911 -0.008931415 0.04355649 0.08955297
0.06263272 0.0757155 0.0156022785 0.23688704 0.13457742 0.14802396 -0.017412174 0.08156074
0.052445985 0.08939477 0.07072758 0.19714878 0.06355413 0.13151512 0.102047004 0.16617525
0.0974885 -0.032214724 -0.07223332 -0.09071314 0.15484871 0.027410066 -0.18820721 -0.0014821785
0.15894352 0.14109568 -0.024933226 0.3827947 -0.061683018 -0.073721 9.8733086e-05 0.002067893
0.018963424 -0.11018496 0.06680217 -0.033822592 -0.01462981 -0.07295913 0.00014908449 -0.0045908536
-0.04583336 0.06435024 0.095074266 0.0029178527 0.014923656 0.3040099 0.12697935 -0.06386976
-0.020345878 -0.14379327 0.0174021 0.025997212 0.0017598177 0.01809304 0.13153398 0.17516674
0.06430738 -0.16821644 -0.19661556 0.06814116 0.030961514 0.12922086 0.07410128 0.08067203
0.021990662 -0.15124996 -0.09512926 -0.09744554 0.10884573 0.028359791 0.24205823 0.0053000115
-0.14055835 0.039983734 -0.0021206532 0.085287414 2.5581643e-05 -0.018881045 -0.10893579 0.02540123
0.10842043 0.08419411 -0.17780246 0.13319173 0.023264993 0.017724045 -0.22039093 -0.067382
0.1447265 -0.023549514 0.08068893 0.29719058 0.21415898 -0.04229169 0.14535639 0.0045775906
0.04383777 0.02812778 -0.088693514 -0.116506316 -0.11322443 0.06274093 -0.16434278 -0.003107272
-0.06622285 0.19810824 0.02664557 -0.076857306 -0.092312545 -0.01885023 -0.06411273 -0.1347339
0.09736364 0.07527024 -0.007147428 -0.041740105 0.047807194 -0.092854485 0.39708477 -0.057090588
0.067119926 -0.067760654 -0.10093913 -0.15055586 -0.07586285 0.1720085 0.1252973 -0.21229075
-0.021511968 -0.0027672616 -0.08808652 -0.14666328 -0.10524506 -0.24355128 0.15031098 -0.080664925
-0.061208133 -0.042599775 -0.007834322 -0.12041384 -0.013958802 -0.044205908 0.027076138 -0.1605682
00000000: 19ff 6bbd b754 59bd 4c90 02bd 36b2 61bc
00000010: 1880 973c cc1e b83c 9868 373e c422 713d
00000020: 14b8 3abe bb84 0c3d 9131 6dbc 5375 38be
00000030: 8297 033e 6e27 683c 151e 21bd 8746 d8bc
00000040: aba0 68bd 54e6 283c 0ba0 bc3d 61e5 d0bc
00000050: 0c64 00bc cef3 013e 64d9 ea3d 1473 90bd
00000060: 7ba2 0c3d 0484 f3bc 1982 3f3d 08fa 563d
00000070: e733 7abd 6d67 95bd e0e7 da3d 0a4d 173e
00000080: 82d9 813d 294d b2bc 4471 a7bc 65f2 abbb
00000090: 5792 23bd 76c7 073e d314 aabc 81f4 22bd
000000a0: bbb1 263c a316 633e f047 243e 60a1 d83d
000000b0: 16a9 d83a 9045 893d 8206 ac3c f4d3 c83d
000000c0: fb8e ad3d aea3 643e ae1c 7b3d 76e1 203d
000000d0: 04ef d73d 4747 59ba 1666 d43c 7de4 50bd
000000e0: 6e3c 8b3d f928 5fbd a456 963c f994 d23d
000000f0: 628c 363c 4a2d b03d 4446 383e 993c cf3c
00000100: d594 8cbb e909 ad3d 9aa1 023e fd51 15bd
00000110: 1981 913d a9f7 163d 1132 7e3e a46a 40bc
00000120: d0e7 4fbd 7881 8fbd 06dc 223d 92b3 6abd
00000130: 8e2b 15bd 9f0f d53c 3e10 91bd 6adb 073d
00000140: 9a8e 3ebd e115 a73d f587 61bd 0eea da3c
00000150: e888 c73d 4e24 05bd 7354 183e 035d 183b
00000160: 243b d93c 79ba 12be 6e6f 063d 130e 41bc
00000170: ef27 e4bc 664e c33d c4d5 633e c631 383e
00000180: 8752 5dbb db2a 35bd 9a01 e5bc d091 a73d
00000190: 3496 08bd 5c4c 873d 75bb 43be 9923 243e
000001a0: f15b 77bd 948f e13d fdcf 3a3e 5747 213e
000001b0: 330e 82bc 1255 12bc 4a68 323d 8c67 b73d
000001c0: 9545 803d ba10 9b3d b3a0 7f3c 8492 723e
000001d0: aace 093e 9893 173e faa3 8ebc 5109 a73d
000001e0: 9ad1 563d 9b14 b73d 9fd9 903d 5fe1 493e
000001f0: ab28 823d e6ab 063e 05fe d03d d829 2a3e
00000200: 0da8 c73d 96f3 03bd 10ef 93bd d0c7 b9bd
00000210: a990 1e3e 138b e03c 64b9 40be a845 c2ba
00000220: 17c2 223e 637b 103e c440 ccbc abfd c33e
00000230: 55a7 7cbd 09fb 96bd ec0e cf38 7d85 073b
00000240: 2f59 9b3c a7a8 e1bd 93cf 883d 8f89 0abd
00000250: dfb1 6fbc 996b 95bd 9053 1c39 df6e 96bb
00000260: c3bb 3bbd 0fca 833d 4cb6 c23d 7239 3f3b
00000270: 5a82 743c 30a7 9b3e e006 023e 26ce 82bd
00000280: 66ac a6bc 8b3e 13be d98e 8e3c 1bf8 d43c
00000290: afa9 e63a db37 943c d8b0 063e e95e 333e
000002a0: 96b3 833d ee40 2cbe 9755 49be 988d 8b3d
000002b0: 00a3 fd3c 7952 043e 69c2 973d 6137 a53d
000002c0: c325 b43c 45e1 1abe 21d3 c2bd 8791 c7bd
000002d0: 83ea de3d cb52 e83c 1dde 773e b8ab ad3b
000002e0: 87ee 0fbe fcc5 233d a8fa 0abb 2bab ae3d
000002f0: 2998 d637 6cac 9abc ba19 dfbd 3e16 d03c
00000300: 880b de3d f66d ac3d d911 36be 6a63 083e
00000310: 3a96 be3c 0432 913c 29ae 61be 93ff 89bd
00000320: 2f33 143e e9ea c0bc 3d40 a53d 5d29 983e
00000330: 7e4c 5b3e 0d3a 2dbd 4ed8 143e 9dff 953b
00000340: 3c8f 333d 3b6c e63c f2a4 b5bd dd9a eebd
00000350: 36e2 e7bd 517e 803d 7949 28be 60a3 4bbb
00000360: d89f 87bd e3dc 4a3e cf47 da3c 5d67 9dbd
00000370: 5c0e bdbd cc6b 9abc 894d 83bd aff7 09be
00000380: 9766 c73d 4927 9a3d f934 eabb acf7 2abd
00000390: 7ad1 433d 7e2a bebd b24e cb3e d2d7 69bd
000003a0: 2c76 893d 19c6 8abd 2db9 cebd 512b 1abe
000003b0: fb5d 9bbd ff22 303e ef4d 003e bf62 59be
000003c0: de39 b0bc f25a 35bb b566 b4bd e62e 16be
000003d0: b98a d7bd 8265 79be 1feb 193e a733 a5bd
000003e0: 61b5 7abd 1a7d 2ebd 875b 00bc 889b f6bd
000003f0: 76b3 64bc 4111 35bd c7ce dd3c fd6b 24be

task_layers.2.0.bias f4 [64]
-0.109752074 0.14404249 -0.13753313 -0.020999705 0.19149928 -0.05970364 -0.055806305 -0.018804105
-0.06686993 -0.00044977537 -0.08631653 -0.06772667 -0.08656074 -0.087357685 -0.030669993 -0.10783708
-0.05681488 -0.08045452 -0.103710726 -0.011634171 0.008140887 0.25684997 -0.10774927 -0.08230718
0.22694063 0.17047606 -0.08098263 0.21378452 0.032430995 -0.03781004 -0.015173844 0.21065609
-0.08392984 0.019655824 0.2559559 -0.09139201 -0.011698748 -0.01938671 0.14105003 0.18961531
0.004542449 -0.047645826 0.15843898 -0.00567302 -0.09802105 0.13916524 -0.066094086 -0.09187685
-0.05991167 -0.036977563 0.16730924 0.0029458893 -0.027098149 0.23704462 -0.030117542 0.14851567
0.019795453 0.016310826 -0.06487448 -0.044727374 -0.09621045 -0.050395418 0.2370226 -0.036129795
00000000: b2c5 e0bd e07f 133e 7cd5 0cbe 9307 acbc
00000010: 6318 443e ce8b 74bd 2795 64bd 110b 9abc
00000020: 1af3 88bd d4cf ebb9 b9c6 b0bd 48b4 8abd
00000030: c246 b1bd 96e8 b2bd a33f fbbc b0d9 dcbd
00000040: b8b6 68bd 57c5 a4bd 4a66 d4bd 409d 3ebc
00000050: 5b61 053c d781 833e a6ab dcbd ab90 a8bd
00000060: 2063 683e 4791 2e3e 39da a5bd 54ea 5a3e
00000070: 5dd6 043d b3de 1abd b79b 78bc 3bb6 573e
00000080: 68e3 abbd 4005 a13c a70c 833e bc2b bbbd
00000090: 1bac 3fbc e1d0 9ebc 6b6f 103e 842a 423e
000000a0: d3d8 943b 4528 43bd d43d 223e bee4 b9bb
000000b0: 43bf c8bd 5581 0e3e 565c 87bd ee29 bcbd
000000c0: f065 75bd c975 17bd 1d53 2b3e d20f 413b
000000d0: f0fc ddbc d3bb 723e 10b9 f6bc 7e14 183e
000000e0: 132a a23c 489e 853c e9dc 84bd 0d34 37bd
000000f0: fc09 c5bd 6d6b 4ebd 0db6 723e d6fc 13bd

task_layers.2.3.weight f4 [1, 64]
-0.22633664 0.42571843 -0.1552035 -0.17701453 0.36385205 -0.17159423 -0.118525565 -0.1646726
-0.16463359 -0.13067457 0.009865482 -0.1703177 -0.17899026 0.057614077 -0.17862222 0.06861862
-0.14238523 -0.24018648 -0.12994298 -0.21013738 -0.100772925 0.3486321 -0.12102456 -0.20346434
0.34813046 0.30358037 0.0067009158 0.40026703 -0.1852013 0.15260094 -0.18344176 0.31259772
-0.20438275 -0.13868867 0.3357325 0.004887771 -0.09945835 -0.15047008 0.33919036 0.4049899
-0.10532909 -0.19773327 0.28277993 -0.19144653 -0.13360807 0.22883095 -0.13407011 -0.13395815
-0.1039441 0.05447444 0.32955346 -0.14250456 -0.14208916 0.34439534 -0.17054984 0.3280541
-0.14983921 -0.073519714 0.021388011 -0.19992073 0.012265515 -0.10519905 0.34808448 0.09479602
00000000: cbc4 67be c4f7 d93e abed 1ebe 4c43 35be
00000010: d14a ba3e 66b6 2fbe 88bd f2bd ef9f 28be
00000020: b595 28be 8ecf 05be d5a2 213c c367 2ebe
00000030: 3949 37be bdfc 6b3d bee8 36be eb87 8c3d
00000040: 6fcd 11be 72f3 75be c60f 05be 412e 57be
00000050: 0962 cebd e87f b23e b9db f7bd f558 50be
00000060: 283e b23e e36e 9b3e 5b93 db3b cdef cc3e
00000070: 69a5 3dbe 6c43 1c3e 28d8 3bbe cf0c a03e
00000080: b649 51be 6704 0ebe 21e5 ab3e 9829 a03b
00000090: d2b0 cbbd d414 1abe 5caa ad3e d65a cf3e
000000a0: c7b6 d7bd 977a 4abe 88c8 903e 8f0a 44be
000000b0: 8ed0 08be a952 6a3e ad49 09be 532c 09be
000000c0: a5e0 d4bd 9720 5f3d 3bbb a83e b7ec 11be
000000d0: d27f 11be 9654 b03e 9ea4 2ebe b5f6 a73e
000000e0: 736f 19be 8191 96bd e935 af3c 05b8 4cbe
000000f0: 4cf5 483c 9972 d7bd 2138 b23e 6a24 c23d
